
CNN MODEL 8
_________________________________________________________________
Layer (type)                 Output Shape              Param #   
=================================================================
conv2d_1 (Conv2D)            (None, 94, 94, 16)        448       
_________________________________________________________________
conv2d_2 (Conv2D)            (None, 92, 92, 32)        4640      
_________________________________________________________________
max_pooling2d_1 (MaxPooling2 (None, 46, 46, 32)        0         
_________________________________________________________________
dropout_1 (Dropout)          (None, 46, 46, 32)        0         
_________________________________________________________________
conv2d_3 (Conv2D)            (None, 44, 44, 64)        18496     
_________________________________________________________________
conv2d_4 (Conv2D)            (None, 42, 42, 128)       73856     
_________________________________________________________________
max_pooling2d_2 (MaxPooling2 (None, 21, 21, 128)       0         
_________________________________________________________________
dropout_2 (Dropout)          (None, 21, 21, 128)       0         
_________________________________________________________________
flatten_1 (Flatten)          (None, 56448)             0         
_________________________________________________________________
dense_1 (Dense)              (None, 512)               28901888  
_________________________________________________________________
batch_normalization_1 (Batch (None, 512)               2048      
_________________________________________________________________
dropout_3 (Dropout)          (None, 512)               0         
_________________________________________________________________
activation_1 (Activation)    (None, 512)               0         
_________________________________________________________________
dense_2 (Dense)              (None, 3)                 1539      
=================================================================
Total params: 29,002,915
Trainable params: 29,001,891
Non-trainable params: 1,024
_________________________________________________________________

=================================================================
====================== CONFUSION MATRIX =========================

|                     |   Actual    |  Actual   |   Actual    |
…
